checkpoints/shakespeare_holospectral_v2.pt (torch, 553421 bytes, 77 tensors)

token_emb.weight f4 [65, 256]
000000 96 d7 ec bb 84 97 11 bc 38 26 ba bb db 35 b7 bc
       -0.0072278483 -0.008886222 -0.0056808256 -0.022364547
000010 a0 86 03 3e 47 da cf bc 3f f2 ac 3d a4 3e 9f 3d
       0.12844324 -0.025372637 0.08444642 0.077756196
000020 56 b8 ff 3d e7 62 36 3c 4a 4e b8 3d 68 ac 59 3d
       0.12486331 0.011131979 0.089993075 0.053142935
000030 52 22 fb 3c 60 f7 41 3e 10 ad 40 3d 1c c2 95 3d
       0.030656014 0.18942022 0.047040045 0.07312414
000040 93 0d b1 3c 13 57 67 3e c7 63 db bd e0 07 c1 bc
       0.021612918 0.2259181 -0.107123904 -0.023563325
000050 e8 06 3c 3d 3d c9 d1 bc 21 c6 9e b9 5c 2e d5 3b
       0.045905024 -0.025608653 -0.00030283726 0.0065057706
000060 ef 02 a2 bc e7 6d 2e be d3 f9 58 3e a7 2e d5 bc
       -0.01977679 -0.17034112 0.2118905 -0.026023222
000070 ae f5 fc bb 6d 7c 81 bc 5b ab 68 3b 54 d1 ad 3c
       -0.007719717 -0.015806401 0.0035502526 0.02121798
000080 e3 37 96 3c 12 bf d8 3c 4b cb a4 bd 79 f2 2a bd
       0.018337196 0.026458297 -0.080465876 -0.041735146
000090 57 0b d4 bd c1 07 7a 3d cd d7 e3 3d 54 e0 d9 bc
       -0.103537254 0.06104255 0.11125145 -0.026596226
0000a0 72 98 7b bd 96 c0 a7 bd 87 ed 89 3c e1 a2 af bc
       -0.06142468 -0.0819103 0.016836895 -0.021439971
0000b0 b6 30 ac bd 70 56 59 bd 7c 23 ed 3d 84 8f c8 bb
       -0.084077284 -0.05306095 0.11579034 -0.006120624
0000c0 eb 8d 45 bc 6f 7b 2e bd 18 47 83 bc 52 2a c2 3c
       -0.012057762 -0.042598184 -0.016025111 0.02370182
0000d0 2f 1c 04 bd 54 0e d4 bd a7 f7 99 3d 94 ab 6e bd
       -0.03225344 -0.103542954 0.07517939 -0.0582691
0000e0 92 9a 02 3d da b9 da 3c d2 e0 d5 bc 33 54 2e 3d
       0.03188569 0.026699949 -0.02610818 0.042560767
0000f0 73 96 05 bd 61 5e 3f bc 4b 32 fd 3a ee 3c 87 3c
       -0.032614183 -0.0116802165 0.0019317357 0.016508546
000100 d5 b6 e1 3b fd c8 e7 bd 42 df 05 bb 8b cb 89 3d
       0.0068882504 -0.11317632 -0.0020427261 0.06728276
000110 3c bc 28 bd 21 3f 05 3d bf 7e 39 3d 0a 76 16 be
       -0.04119514 0.032530908 0.04528689 -0.14693466
000120 7c 16 f4 bd 9e 95 53 bd 56 78 13 3d 62 d9 e0 bc
       -0.11918351 -0.051656358 0.036003433 -0.027447406
000130 e7 d2 35 3c 68 65 a7 3c 02 ca 72 3c 53 95 a5 bd
       0.011097646 0.020434096 0.01481867 -0.08085122
000140 39 eb 43 bd 7a 9d 9e bd 47 92 3d bd b9 67 12 bc
       -0.047831748 -0.0774488 -0.04628208 -0.008935862
000150 07 bb 29 3d 79 64 9c bb ed 3d c0 3c 97 4b eb bd
       0.04143813 -0.0047727195 0.023467029 -0.11489027
000160 c0 d1 34 bb 3d 94 b9 bd 51 9e 44 3d ea d4 f3 bd
       -0.002759084 -0.09061477 0.048002545 -0.119058445
000170 af 2e de 3d 8d 63 23 bd 49 bf 06 be 45 6f 6a 3b
       0.10848748 -0.03988986 -0.13158907 0.0035771888
000180 2f 51 12 3e c0 21 8b bd 26 3d 1d 3d f9 16 ec 3c
       0.14288782 -0.06793547 0.038388394 0.028819548
000190 ef 8b 2a 3d 03 9a e7 3c 9a 45 6e 3d 1f c5 f2 3d
       0.041637357 0.02827168 0.058171846 0.11854004
0001a0 40 9c 45 bc 00 08 fc 3c 89 77 22 3e 51 c1 ff 3c
       -0.012061179 0.030765533 0.15865912 0.03122011
0001b0 02 54 98 3d bf 24 72 3d 9d 61 ab bc bc 6f 36 bc
       0.07437898 0.059117075 -0.02092057 -0.011135038
0001c0 e5 7e 91 3d e7 e3 31 bc 73 08 e5 bd 59 80 a1 3d
       0.07104281 -0.010857559 -0.11183252 0.078858085
0001d0 1f da 2e be e1 b9 02 be d5 23 c8 bd a1 22 5f bd
       -0.17075394 -0.1276622 -0.097724594 -0.054476384
0001e0 d5 e4 7d 3c c7 d0 cf bd 0e b6 cd bc 47 79 95 bd
       0.015496452 -0.10147243 -0.025111225 -0.072985224
0001f0 05 c4 20 3e 9d 1d 81 3d 72 26 18 bd 33 90 04 3e
       0.15699776 0.063044764 -0.03714604 0.12945633
000200 cb 81 f8 bb bf 8c 19 3d 99 c9 06 bd 31 8a b6 3c
       -0.007583832 0.03748774 -0.032907102 0.022282692
000210 6b c2 ca bd 67 b5 e7 bc 8a da 04 3e 9a 33 34 3e
       -0.099003635 -0.028284742 0.12973991 0.1759781
000220 23 44 b0 3d 5e 19 bd bd 9f bf 3f bc 2e 73 5e 3d
       0.08606746 -0.09233354 -0.011703401 0.054309063
000230 61 9f 32 be b7 45 b1 3d 6f 8e ce bd ac aa 8c bd
       -0.1744361 0.08655875 -0.10085761 -0.068684906
000240 3c e5 83 3d 2a a3 29 be 53 64 5e bd d4 44 98 bc
       0.06440207 -0.16566148 -0.054294895 -0.018587507
000250 96 68 ef 3c 36 3d 9b 3d c5 88 12 bd 34 9d 0e 3e
       0.029224675 0.075800344 -0.035774965 0.13927156
000260 77 46 6c bd ab 2e 6b bb ba 79 ac 3c 50 ed 36 3b
       -0.057684388 -0.003588597 0.021054137 0.0027912445
000270 3e 89 31 3d e0 cc f8 bc 71 3d dd bc 2e 0f d4 3d
       0.043343775 -0.03037113 -0.027006837 0.10354458
000280 38 45 99 bc d6 6c e3 bd cd cb 3e 3d ba 37 fe bd
       -0.018709764 -0.11104743 0.04658108 -0.12412973
000290 a2 48 c9 bc fa 05 ef bc 16 60 e3 bd b0 c1 cf bc
       -0.024570767 -0.029177655 -0.11102311 -0.025360912
0002a0 69 93 58 3d ce b5 28 3d 6d 2d c8 bd 59 5b 54 bc
       0.052874956 0.041189007 -0.09774289 -0.012961232
0002b0 1f 1d 69 bd ce b4 87 3d fb eb fb bd fd d8 51 3c
       -0.056912538 0.06626283 -0.12300869 0.012808082
0002c0 bd 3e 3c 3e 62 c6 88 bd cc 03 6b bd 20 25 3a bb
       0.18383308 -0.066784635 -0.057376668 -0.0028403476
0002d0 b0 55 bf bd be ce 07 3b e4 43 18 ba e8 12 61 bd
       -0.093425155 0.0020722593 -0.00058084563 -0.05494967
0002e0 33 a2 b5 bc 05 d4 fa 3c 6c 77 f9 bb b7 c8 b2 3b
       -0.02217207 0.030618677 -0.007613113 0.005456056
0002f0 7d 01 d0 3c b4 12 b2 3c d4 3b 06 3d bc 99 00 3c
       0.025391335 0.021737434 0.0327719 0.007849153
000300 dd f3 b2 3d c6 07 6d bd 7e 78 e5 3c 4a 7c f9 3b
       0.087379195 -0.05786874 0.028011557 0.0076136934
000310 a4 07 92 3c e8 94 c9 3c 23 34 d0 bc 04 ab 96 bd
       0.017825909 0.024607137 -0.025415486 -0.073568374
000320 ea bb b3 3d ad eb bc 3c 81 1c f0 3d c0 80 73 3c
       0.08776076 0.023061598 0.11724187 0.014862239
000330 af 0c 08 bc ed 7d 33 bd 17 53 5d bd 08 a0 58 bc
       -0.008303805 -0.043821264 -0.05403432 -0.013221748
000340 31 7c fc bc f4 98 ba 3d c8 cc c5 bd 77 f1 15 3b
       -0.030820938 0.09111205 -0.096581995 0.002287952
000350 b5 17 6a bd 7c 97 b7 3d f2 dc 0f bd 80 e8 e6 3c
       -0.057151515 0.0896444 -0.03512282 0.028187037
000360 73 de eb 3b b5 3c 34 bd fc 26 be bb bb 89 e0 bd
       0.007198149 -0.044003207 -0.005802987 -0.1096377
000370 a9 d6 a2 3c 04 32 ca bc 98 90 73 bd 40 6d 31 3d
       0.019877749 -0.024682052 -0.059464067 0.04331708
000380 a9 a2 1b 3e 5e f4 41 be 20 c0 14 3d 57 a9 81 bd
       0.15198769 -0.18940875 0.036316037 -0.06331127
000390 16 90 51 3d b6 05 16 3e 5f eb c3 bd f1 4f 04 3e
       0.0511628 0.14650616 -0.09566378 0.1292112
0003a0 dc dd 49 3c 07 a0 c3 3b de 14 2c 3d 0f e8 67 bd
       0.012320962 0.0059700045 0.042012088 -0.056617793
0003b0 7b 87 27 be cd b0 2b 3d d0 12 a8 3d 30 d8 50 3c
       -0.16360275 0.041916657 0.08206713 0.012746856
0003c0 49 b4 cb 39 77 cf 7f 3d 27 ef 20 bd 9d 72 3d 3d
       0.000388535 0.062453713 -0.039290573 0.046251882
0003d0 c1 c9 21 3e 36 44 c2 bc ff 4d 1b 3e be b3 68 3d
       0.1579962 -0.023714166 0.15166472 0.05681204
0003e0 b6 49 1b bd ae aa cd 3d fa c0 c9 3b d4 e5 de bd
       -0.037912093 0.1004232 0.006157038 -0.1088368
0003f0 f8 bd 1e bd 6e d1 af bd 80 e1 75 bc 6b 28 39 bd
       -0.038755387 -0.085848674 -0.015007377 -0.04520456

rotary.inv_freq f4 [128]
000000 00 00 80 3f f8 39 6e 3f d7 af 5d 3f ad 4b 4e 3f
       1.0 0.93057203 0.86596435 0.8058422
000010 11 f9 3f 3f 06 a5 32 3f e0 3d 26 3f 2b b3 1a 3f
       0.7498942 0.69783056 0.64938164 0.6042964
000020 9a f5 0f 3f ef f6 05 3f cf 53 f9 3e 5f 04 e8 3e
       0.56234133 0.52329916 0.48696753 0.45315835
000030 9b e8 d7 3e 24 eb c8 3e 1b f8 ba 3e ff fc ad 3e
       0.4216965 0.39241898 0.36517414 0.33982083
000040 9b e8 a1 3e ea aa 96 3e 04 35 8c 3e 09 79 82 3e
       0.31622776 0.29427272 0.27384198 0.25482967
000050 23 d4 72 3e 35 f8 61 3e ed 47 52 3e 7c ae 43 3e
       0.23713736 0.2206734 0.2053525 0.1910953
000060 87 18 36 3e 09 74 29 3e 40 b0 1d 3e 91 bd 12 3e
       0.17782794 0.1654817 0.15399265 0.14330126
000070 77 8d 08 3e e0 24 fe 3d d6 7f ec 3d 66 14 dc 3d
       0.13335215 0.12409377 0.1154782 0.10746078
000080 cd cc cc 3d c6 94 be 3d 78 59 b1 3d 56 09 a5 3d
       0.1 0.0930572 0.08659643 0.08058421
000090 0d 94 99 3d 6b ea 8e 3d 4d fe 84 3d 13 85 77 3d
       0.074989416 0.069783054 0.064938165 0.060429644
0000a0 c2 55 66 3d e4 57 56 3d 3f 76 47 3d 19 9d 39 3d
       0.05623413 0.052329913 0.048696753 0.045315836
0000b0 15 ba 2c 3d 1d bc 20 3d 48 93 15 3d cc 30 0b 3d
       0.04216965 0.0392419 0.03651741 0.033982083
0000c0 e3 86 01 3d 77 11 f1 3c d2 54 e0 3c a8 c1 d0 3c
       0.03162278 0.029427273 0.027384195 0.025482967
0000d0 4f 43 c2 3c 91 c6 b4 3c 8b 39 a8 3c 97 8b 9c 3c
       0.023713736 0.02206734 0.020535251 0.01910953
0000e0 39 ad 91 3c 08 90 87 3c 33 4d 7c 3c e7 c8 6a 3c
       0.017782794 0.016548172 0.015399265 0.014330125
0000f0 f2 7b 5a 3c b3 50 4b 3c 11 33 3d 3c 52 10 30 3c
       0.013335215 0.012409377 0.01154782 0.010746079
000100 0a d7 23 3c 05 77 18 3c 2d e1 0d 3c 79 07 04 3c
       0.01 0.00930572 0.008659643 0.008058422
000110 b0 b9 f5 3b 46 aa e4 3b 15 ca d4 3b 0f 04 c6 3b
       0.0074989423 0.006978306 0.0064938166 0.0060429643
000120 9c 44 b8 3b 83 79 ab 3b cc 91 9f 3b ae 7d 94 3b
       0.0056234132 0.005232991 0.0048696753 0.0045315837
000130 77 2e 8a 3b 7d 96 80 3b 0e 52 6f 3b 7a b4 5e 3b
       0.004216965 0.0039241896 0.0036517414 0.0033982084
000140 38 3e 4f 3b c5 da 40 3b 0f 77 33 3b 53 01 27 3b
       0.0031622779 0.0029427272 0.0027384197 0.0025482967
000150 0d 69 1b 3b db 9e 10 3b 6f 94 06 3b f0 78 fa 3a
       0.0023713738 0.0022067341 0.002053525 0.0019109529
000160 28 15 e9 3a 73 e6 d8 3a 5c d7 c9 3a ed d3 bb 3a
       0.0017782794 0.0016548171 0.0015399265 0.0014330127
000170 8e c9 ae 3a f7 a6 a2 3a 0e 5c 97 3a db d9 8c 3a
       0.0013335214 0.0012409379 0.001154782 0.0010746078
000180 6f 12 83 3a a3 f1 73 3a e2 01 63 3a 28 3f 53 3a
       0.001 0.0009305721 0.00086596434 0.0008058422
000190 8c 94 44 3a 9e ee 36 3a 44 3b 2a 3a a5 69 1e 3a
       0.0007498942 0.0006978306 0.00064938166 0.0006042964
0001a0 16 6a 13 3a 02 2e 09 3a ac 4f ff 39 e2 95 ed 39
       0.0005623413 0.0005232991 0.0004869675 0.00045315834
0001b0 25 17 dd 39 96 bd cd 39 d7 74 bf 39 fb 29 b2 39
       0.0004216965 0.000392419 0.0003651741 0.00033982084
0001c0 60 cb a5 39 9e 48 9a 39 72 92 8f 39 a9 9a 85 39
       0.0003162278 0.00029427273 0.00027384196 0.00025482968
0001d0 15 a8 78 39 92 64 67 39 e4 53 57 39 c1 60 48 39
       0.00023713738 0.00022067342 0.0002053525 0.0001910953
0001e0 53 77 3a 39 29 85 2d 39 16 79 21 39 24 43 16 39
       0.00017782794 0.00016548172 0.00015399265 0.00014330127
0001f0 72 d4 0b 39 2b 1f 02 39 e2 2c f2 38 91 5c e1 38
       0.00013335215 0.00012409377 0.00011547819 0.00010746078

blocks.0.norm1.weight f4 [256]
000000 99 01 30 3e 3c 1f 24 3c 9d 28 b2 3c b9 1f 61 bd
       0.1718811 0.0100172125 0.021747882 -0.054961894
000010 db 6b a5 3b 48 65 a8 3d a0 27 d0 bc 67 85 fa bc
       0.0050482578 0.08222443 -0.02540952 -0.03058119
000020 66 08 10 3e dc a4 de bc fa 3d 0b 3d ce 48 be 3c
       0.14065704 -0.02717822 0.033994652 0.023228075
000030 74 ae cb bb 61 2d 6f bd 8d 12 91 bc c0 52 65 bd
       -0.006215865 -0.058392886 -0.017709041 -0.05598712
000040 73 44 26 3c f4 8a ab bc ef 02 36 bd 78 e3 e2 3c
       0.0101481555 -0.020940281 -0.04443639 0.027696356
000050 33 d3 03 bd b7 ee 6e bc 6b 78 2a 3b b0 95 0c 3d
       -0.032183837 -0.014583281 0.0026011716 0.03432244
000060 08 1e 4d bc 26 4b 69 bd fe 45 69 bd 9d 4f df bc
       -0.012519367 -0.056956433 -0.056951515 -0.027259642
000070 44 4a 48 3b 00 af bf 3c 60 9b ab 3d a6 7b 5c bc
       0.0030561844 0.023398876 0.08379245 -0.013457214
000080 81 96 dc bc 75 a9 e0 ba 2c 04 3f bd 5e b1 6a bd
       -0.026927235 -0.0017140346 -0.046634838 -0.057298057
000090 4d 73 79 bd 34 53 ea bb 29 bd 37 bc 18 7b fd 3c
       -0.060900975 -0.007151032 -0.011214533 0.030942485
0000a0 3e e6 46 3d 55 0c a1 bc 3f 28 e3 bc 65 dc a2 3d
       0.04855942 -0.0196592 -0.027729152 0.07952193
0000b0 29 91 3e 3e d0 04 a2 3e 60 65 3d 3e b1 cf 0b 3d
       0.18610062 0.31644297 0.18495703 0.034133617
0000c0 1a da 11 3e 1d a9 70 3e 1e 93 f4 3d 14 c5 8f 3e
       0.14243355 0.23502012 0.11942123 0.28080046
0000d0 55 c8 e4 3d 0e 40 de 3e 2a ee 9d 3e b4 07 c2 3e
       0.11171023 0.43408245 0.30845767 0.37896502
0000e0 5e bb 23 3f 7c 8d 56 3f 5c 91 5b 3f cc f5 51 3f
       0.63957775 0.8380964 0.85768676 0.8201568
0000f0 43 f2 33 3f f2 0f 66 3f 31 cd 6e 3f cc 20 14 3f
       0.7029154 0.8986808 0.9328185 0.57862544
000100 89 8d 4c 3f 81 9d 86 3f 5a 14 6d 3f 93 af 58 3f
       0.79903466 1.0516816 0.9260918 0.84642905
000110 6d 6d 75 3f 05 8a 5f 3f 29 8d 68 3f f0 c0 5e 3f
       0.95870095 0.87319976 0.90840393 0.8701315
000120 66 5b 65 3f 22 df 7a 3f de 1c 7d 3f 50 68 6b 3f
       0.8959259 0.97996724 0.9887217 0.91956043
000130 5c e6 80 3f 43 57 6a 3f ba ae 61 3f ca c3 77 3f
       1.00703 0.915394 0.88157237 0.96783125
000140 2a 02 81 3f 41 bb 64 3f 23 fd 68 3f 88 1a 71 3f
       1.0078785 0.89348227 0.91011256 0.9418111
000150 d0 ca 56 3f 87 1c 5b 3f c0 2c 70 3f c8 f5 7e 3f
       0.8390322 0.85590404 0.93818283 0.9959378
000160 7e a2 6e 3f be 0a 5a 3f 8e 22 74 3f 06 61 71 3f
       0.93216693 0.8517264 0.95365226 0.9428867
000170 d5 51 76 3f 5e 44 60 3f 2b 4c 69 3f fc dd 78 3f
       0.96218616 0.8760432 0.9113185 0.9721372
000180 f8 6d 75 3f d7 1e 73 3f 70 4b 6a 3f 3c 5f 81 3f
       0.95870924 0.9496893 0.9152136 1.0107188
000190 53 1a 61 3f 84 35 6f 3f 94 25 71 3f a3 34 68 3f
       0.8793079 0.93441033 0.94197965 0.9070532
0001a0 1c 6b 6e 3f 6f d0 5e 3f f6 d4 7f 3f 59 41 7c 3f
       0.93132186 0.87036794 0.9993433 0.9853721
0001b0 c6 c5 6a 3f ec 98 70 3f 08 08 73 3f d6 cf 75 3f
       0.9170803 0.9398334 0.9493413 0.9602026
0001c0 00 10 7c 3f 5a 2a 73 3f 82 d4 81 3f d1 09 7a 3f
       0.98461914 0.949865 1.0142977 0.9767123
0001d0 c9 5e 85 3f 8e f6 75 3f cd 96 6e 3f 67 45 6c 3f
       1.0419551 0.9607934 0.93198854 0.922934
0001e0 d4 4d 78 3f 23 d4 6e 3f 54 98 7f 3f 47 95 6a 3f
       0.96993756 0.93292445 0.9984181 0.9163403
0001f0 2b 95 69 3f 0b 8f 78 3f 50 8e 84 3f 96 27 76 3f
       0.9124324 0.97093266 1.035593 0.96154153
000200 f8 45 fd 3a bb 18 47 3d 20 e3 66 3e 31 b5 c3 3c
       0.001932322 0.04860757 0.22547579 0.02389011
000210 b2 1c c3 ba 48 c2 ba bc 9b af 0e bd d9 1c 06 3d
       -0.0014885871 -0.022797719 -0.03483544 0.032742355
000220 0f ac 19 3d 14 69 f1 bc f5 b1 e2 3a 83 a8 85 3b
       0.037517603 -0.02946905 0.0017295467 0.004078926
000230 c1 18 53 bc 16 24 d8 bc f7 e0 61 bd c4 c7 e3 3c
       -0.01288432 -0.026384395 -0.055146184 0.027805217
000240 0b 7f 94 bd 4b c7 0e bc 71 85 16 3c a7 b8 e0 bc
       -0.07250794 -0.008714507 0.009187088 -0.0274318
000250 af 13 fb bb 73 43 59 bd 36 82 4a bd 22 09 82 bd
       -0.0076622586 -0.05304284 -0.049440585 -0.06349398
000260 77 db 4e bd d6 60 9f bc 40 02 56 bd c7 08 a1 bd
       -0.050502267 -0.019455355 -0.05224824 -0.07863002
000270 73 87 70 3d a7 46 fc bb 85 49 ba 3d fd 2e 88 bb
       0.058722924 -0.007698852 0.09096054 -0.004155992
000280 1e bd ce bc 4b f5 a7 3b 6f f5 d4 3b 6b 8e 94 bc
       -0.025236662 0.0051256767 0.0064989845 -0.018134316
000290 15 4e 0d bd 32 85 ea bc 27 f3 95 3d f4 92 03 3d
       -0.034498293 -0.028627966 0.07321768 0.032122567
0002a0 12 21 5a 3d b0 6f 4b bc aa 5f ff bb 4b 89 79 3e
       0.053254195 -0.012416765 -0.0077933865 0.2436878
0002b0 28 07 3d 3e f4 ff d0 3e 33 da 48 3c 42 7a 20 bd
       0.18459761 0.40820277 0.012259054 -0.039179094
0002c0 e9 37 29 3e 3e 94 7d 3e 8a fe 1e 3e db 4e 89 3e
       0.16525234 0.24763581 0.15526786 0.26817974
0002d0 ad 8a f9 3e 72 c8 fb 3e 79 a4 08 3f be 80 2d 3f
       0.48738614 0.49176365 0.53375965 0.6777457
0002e0 62 ec 20 3f db 50 2d 3f 86 6e 32 3f ce 2e c5 3e
       0.6286069 0.677015 0.69699895 0.38512272
0002f0 81 62 34 3f 33 4e 28 3f 3d 76 6b 3f db e4 36 3f
       0.70462805 0.6574432 0.9197729 0.71442956
000300 1a 65 4a 3f 60 88 64 3f 55 3a e7 3e 4c 09 79 3f
       0.7906052 0.8927059 0.4516169 0.9727981
000310 20 f7 2c 3f 85 d3 3d 3f 99 a0 45 3f d9 9d 6d 3f
       0.6756458 0.7415088 0.7719818 0.9281898
000320 73 73 7c 3f 29 b2 64 3f a4 28 4b 3f 50 72 4f 3f
       0.9861366 0.8933435 0.7935889 0.810338
000330 12 82 62 3f 25 da 56 3f 20 2e 7c 3f c2 ff 76 3f
       0.8847972 0.8392661 0.9850788 0.96484005
000340 89 ef 60 3f f5 9d 6d 3f 9a d3 68 3f 6f 8f 62 3f
       0.878655 0.9281915 0.9094788 0.8850011
000350 9e 0c 70 3f 67 68 7d 3f 5d 87 87 3f f7 fc 85 3f
       0.9376925 0.9898743 1.0588185 1.0467824
000360 ba 8d 73 3f a6 05 7b 3f ce cc 6c 3f 65 ca 79 3f
       0.9513813 0.98055494 0.9250001 0.97574455
000370 60 30 72 3f c0 88 6a 3f 9e cb 68 3f 1d 87 76 3f
       0.94605064 0.91614914 0.90935695 0.96299917
000380 13 1b 76 3f dc a3 6b 3f b0 85 6d 3f 73 19 72 3f
       0.9613506 0.92046905 0.92782116 0.9457008
000390 66 26 7c 3f 25 e2 70 3f b1 cd 75 3f de f9 75 3f
       0.9849609 0.9409507 0.96016985 0.9608439
0003a0 42 ae 79 3f a8 cb 6d 3f ab 05 67 3f c8 c4 81 3f
       0.9753152 0.9288888 0.90243024 1.0138178
0003b0 e1 ae 81 3f 12 80 76 3f c8 38 76 3f 18 f4 6e 3f
       1.0131494 0.9628917 0.9618039 0.9334121
0003c0 1b fb 66 3f de 58 70 3f 10 96 79 3f 70 83 77 3f
       0.90226907 0.938856 0.974946 0.9668493
0003d0 0b 81 84 3f df a0 60 3f 17 cc 7e 3f 7c 2f 74 3f
       1.0351881 0.8774547 0.99530166 0.95384955
0003e0 7e 06 68 3f 3f 7e 81 3f c6 24 76 3f 0a 4e 7d 3f
       0.90634906 1.0116652 0.9614986 0.98947203
0003f0 f2 29 6b 3f c3 ac 7f 3f 4c 68 76 3f c3 ac 55 3f
       0.9186088 0.9987299 0.96252894 0.8346674

blocks.0.norm1.bias f4 [256]
000000 5b 43 35 bd 41 40 fa 3b de 52 d2 bd b9 33 d6 3b
       -0.04425369 0.007637054 -0.10269712 0.0065369275
000010 51 b4 98 bd 07 a0 ad bc b1 df e7 3c cc 7e ce bc
       -0.074562676 -0.021194471 0.028304907 -0.025206946
000020 cf ef e3 bc 71 7d fb 3c fe e8 b2 3d 4c db ae bc
       -0.02782431 0.030699464 0.08735846 -0.021344803
000030 e4 8d 7a 3c 58 8d ba 3c f8 3b f6 bb 8d 72 23 3d
       0.015292618 0.022772476 -0.007514473 0.039904166
000040 cd 43 45 bd 29 ce 24 bd 27 71 86 ba 5f 77 f4 bc
       -0.048160363 -0.040235672 -0.0010257111 -0.029842077
000050 47 87 f2 3c ac 5b 6e 3d ea 2f b0 bc c9 5b 78 bd
       0.02960552 0.058192894 -0.021507222 -0.06063441
000060 7c 53 c8 3c c5 ee 5d 3c f0 ae a7 3d 0f ca 17 3c
       0.024453871 0.013545697 0.081876636 0.009264483
000070 28 82 a7 bd 1b 49 37 bd 6c ee 9e bc dc 3d a8 bb
       -0.08179122 -0.044747453 -0.019400798 -0.0051343273
000080 59 0d 7e 3b e3 9b 81 3d 82 ad 84 3b cf 18 7d 3b
       0.003876528 0.06328561 0.004049004 0.0038619523
000090 9e 5a 52 3d 08 fe 28 bc 3e 82 8b bc 7b 8f 14 3d
       0.05135595 -0.010314472 -0.017029878 0.036269646
0000a0 4c d7 c0 bc c5 aa 00 3c f1 81 1d 3c c9 99 ef bc
       -0.023540162 0.007853215 0.0096135 -0.029248135
0000b0 40 bd a6 bb 6d a9 fb 3c 5d 34 bd bb e0 3b da 3b
       -0.0050884783 0.030720437 -0.0057740645 0.0066599697
0000c0 37 0f 29 3d 3a 11 9f 3d e1 f9 d8 bc ef 7f be bc
       0.041274276 0.077669576 -0.026486339 -0.023254363
0000d0 1d 05 8e bb 2f c5 92 bd a8 59 bc bc ea 2d 96 3b
       -0.0043341056 -0.07166516 -0.02299197 0.00458311
0000e0 f5 ad 47 bc 81 fd 92 3d be ef f4 3c e8 a3 82 3c
       -0.012187471 0.07177258 0.029899474 0.015947297
0000f0 62 08 fd bc f5 6b 84 3c 30 0e e6 bc 22 98 8f bc
       -0.030887786 0.01616476 -0.028082937 -0.017528597
000100 24 28 08 3d 6b a4 b7 b9 56 25 b8 bd 56 d4 38 bd
       0.033241406 -0.0003502698 -0.08991496 -0.045124374
000110 97 23 de 3c 9e 5e b1 bc 59 ef 74 3d a7 0d cf 3c
       0.02711658 -0.021651562 0.059798572 0.025275065
000120 98 99 0b bd 8a 97 af 39 e9 91 5d bc 11 ee 78 bc
       -0.034082025 0.00033491506 -0.013523557 -0.015193478
000130 34 a9 0f 3d 58 96 1c 3d 9e d2 34 bd 63 aa 8d bd
       0.035073474 0.038229316 -0.044146173 -0.06917264
000140 b3 86 ea 3d 4a 53 01 bd f6 a7 83 ba d5 ca ab bc
       0.11451473 -0.03157357 -0.0010044563 -0.020970741
000150 0a 3c 28 bd 49 86 5d bd 74 d2 ed bc 73 30 1a 3a
       -0.041072883 -0.054083142 -0.029031016 0.0005881853
000160 4f 66 db bb a8 a5 8b 3d 8e 01 22 3d 26 d4 35 bd
       -0.0066955457 0.06818706 0.039552264 -0.044391774
000170 de 97 7d 3c 7d 12 16 3d f8 17 09 bd 0d 38 9b bd
       0.0154781025 0.036638726 -0.033470124 -0.0757905
000180 e8 bc 25 3d eb 8b c7 bd eb fa 08 3d 4b 23 49 bc
       0.04046336 -0.09743484 0.03344242 -0.012276481
000190 2a 7d 3d 3d 5f 64 82 3d 50 8e 45 3b 53 46 a4 bb
       0.046261944 0.063668005 0.003014464 -0.005013266
0001a0 ec 7c 6a bd 49 c2 75 bc 19 3e 7c 3d 4d f3 58 bc
       -0.05724804 -0.0149999345 0.06158266 -0.013241601
0001b0 63 6c f6 3c 43 fd 30 3d 93 b2 e1 bc 92 66 57 3d
       0.03008098 0.04321028 -0.027550971 0.052588053
0001c0 04 30 33 3d 20 02 97 bb e4 ff 41 3d 1d bc 03 3d
       0.043746963 -0.0046084076 0.047363177 0.03216182
0001d0 6f 58 ba bd fc f3 0c bd de 71 c8 3c 4f 28 d6 ba
       -0.090988986 -0.03441237 0.024468359 -0.0016338917
0001e0 06 ea cd 3b e7 c6 20 3d f3 be 35 bd 4c bd ec bb
       0.0062840013 0.039252188 -0.044371556 -0.0072247144
0001f0 9e 91 ec 3c 6c d3 34 bc 60 1f 1f bd d4 0d 21 3c
       0.02887803 -0.011036735 -0.03884828 0.009829957
000200 0c 31 54 3c 0e 8d 8d bd 47 6a 53 3c 2f 00 2f 3c
       0.012951147 -0.0691167 0.012903756 0.010681196
000210 9f c5 9d bc 2d b9 24 bd 12 2f bd bd 5a ab 53 bc
       -0.019259272 -0.04021566 -0.092374936 -0.012919271
000220 7c 93 67 3d 53 03 25 3d 7c 31 9c bc ad cb 21 bd
       0.056537136 0.040286373 -0.019066565 -0.03950088
000230 e9 b3 33 bb 23 60 53 3c 35 ed 06 3d a5 28 95 bd
       -0.0027420467 0.012901339 0.032941062 -0.07283143
000240 63 95 07 3d 70 78 bb 3c 0a a0 7b 3c 5a 2d 8c bd
       0.03310145 0.022884578 0.0153579805 -0.068445876
000250 79 e9 18 bd d1 da d8 3b 8c 9a a6 3c 8a 0d 73 3c
       -0.037332032 0.006617882 0.020337366 0.014834771
000260 31 b8 9e 3d 43 72 0a 3c f1 0c 50 bd 05 9a 09 bc
       0.077499755 0.008450094 -0.050793592 -0.0083985375
000270 45 03 8b 3c 72 4f 3b bc 24 ce 16 bd c6 b1 04 bd
       0.016969332 -0.011432515 -0.036817685 -0.0323961
000280 76 7e 2b 3b 2e 1a 42 bc ce 26 93 3d 65 47 a2 3c
       0.0026167906 -0.011847062 0.07185136 0.019809434
000290 bd 76 1e 3d 90 70 96 3c 2f 60 2c 3c 76 5d 29 3c
       0.038687456 0.01836422 0.010520979 0.010337224
0002a0 be 1f 7a bc 1a 44 30 3b 0a 57 79 3b 5c e9 bb 3c
       -0.015266357 0.002689606 0.0038046264 0.022938423
0002b0 51 c1 42 bd 43 41 40 3a 3b 22 84 bc 9e 76 c3 3b
       -0.047547642 0.00073339435 -0.016129604 0.005965068
0002c0 c9 15 97 3d 85 42 26 bc 0a dd d6 bc 86 97 92 3c
       0.07377202 -0.010147695 -0.026228447 0.017894518
0002d0 ba f4 2b 3d d1 6a d7 bc 24 cf 16 3c c3 48 9c bd
       0.041981436 -0.026296051 0.00920466 -0.07631066
0002e0 05 48 32 bd bc 79 d7 3c d4 ce b9 bc e6 fe 6d 3d
       -0.043525714 0.026303165 -0.022681631 0.05810442
0002f0 5f f1 82 3d e9 cc b6 3a 4e 9f b8 3c 67 72 1f bc
       0.06393694 0.0013946566 0.0225369 -0.0097318655
000300 98 30 13 bb 32 36 ed bc 33 2a ed 3c db 8c 08 bd
       -0.0022459384 -0.028956506 0.028950786 -0.033337455
000310 c7 52 02 bd b0 1c b0 3c d2 a3 54 bc 17 fa 92 bd
       -0.031817224 0.021498054 -0.012978511 -0.07176607
000320 fa 34 34 bc aa 7c 40 3a 8a f5 92 3d d9 00 ac 3c
       -0.010998959 0.0007342795 0.07175739 0.020996498
000330 ca d4 11 bd e9 5f dd bc 1f 0e c1 3a aa 12 17 bd
       -0.035603322 -0.027023273 0.001472894 -0.036883034
000340 22 15 51 3c 8a 06 94 bc e8 2c e6 bc 69 10 8e 3d
       0.012761386 -0.018069524 -0.028097585 0.06936724
000350 00 42 01 3d 32 d4 de bc 61 87 a1 bc a2 60 68 3d
       0.031557083 -0.027200792 -0.019717874 0.05673278
000360 94 fe 7f bc 80 e0 40 3c cc 59 4c bd d2 10 7b bd
       -0.015624661 0.011772275 -0.049890324 -0.061295338
000370 87 da fe bc 15 d5 0f 3d dc 0c 63 3c e6 0f 8d 3c
       -0.031110061 0.03511532 0.013858046 0.017219495
000380 0a 88 44 3d 76 31 df bb 19 3a 14 3c bf 36 e9 bc
       0.0479813 -0.006811316 0.009047055 -0.028468488
000390 a3 66 ab 3c fb 65 89 bc 50 0d 4c bc ff a9 7b bc
       0.020922964 -0.01677226 -0.012454346 -0.015360354
0003a0 49 79 46 bd 09 64 89 3d 4a b6 c0 3c ac 8d ac 3c
       -0.04845551 0.06708533 0.023524422 0.021063648
0003b0 f9 90 d3 3c 2b 83 81 bd f0 ef 19 bd 53 7f 38 bc
       0.025825964 -0.063238464 -0.037582338 -0.011260825
0003c0 94 ab 15 3d 2b 9b df 3c 67 95 4d 3d b0 29 ad 3c
       0.036540583 0.02729567 0.05019131 0.021138042
0003d0 c1 60 08 3d 5c b0 37 bc 40 b6 86 3a 04 14 14 3d
       0.033295397 -0.011211481 0.0010277703 0.0361519
0003e0 61 26 19 3d 35 25 41 bd 1b 78 31 bd 6f c4 99 bd
       0.037390117 -0.047154624 -0.043327432 -0.0750817
0003f0 89 0d f9 3c fd 99 74 3d fb 08 f7 3c d2 dc 4b bd
       0.030401962 0.059717167 0.03015565 -0.049771138

blocks.0.norm2.weight f4 [256]
000000 21 66 68 3f 3e 9c 2d 3f b3 b1 61 3f e0 7b 5d 3f
       0.90780836 0.6781653 0.8816177 0.86517143
000010 05 58 3a 3f 31 d1 18 3f 66 e8 46 3f b6 bd 3d 3f
       0.7279056 0.596942 0.7769836 0.741176
000020 6f 14 37 3f 97 bc 0d 3f 5e 3a 33 3f 5d b2 47 3f
       0.71515554 0.5536589 0.70010936 0.78006536
000030 8b 94 06 3f 42 82 4a 3f 03 e3 48 3f 94 02 41 3f
       0.5257041 0.7910501 0.7847139 0.7539456
000040 2b 26 38 3f 96 99 17 3f 08 13 3c 3f 02 04 36 3f
       0.7193324 0.5921873 0.7346654 0.71099865
000050 54 96 43 3f df ad 30 3f 3f 45 41 3f 11 14 2b 3f
       0.7640126 0.69015306 0.75496286 0.66827494
000060 23 06 29 3f ef aa 3b 3f 20 d1 54 3f c8 99 02 3f
       0.6602499 0.733077 0.831316 0.510159
000070 d3 5d 24 3f a0 ae 4d 3f 9b 26 d9 3e ce b5 18 3f
       0.64205664 0.8034458 0.42412266 0.5965241
000080 90 8f 30 3f b8 e6 35 3f 20 2a 57 3f e6 e4 54 3f
       0.6896906 0.71055174 0.8404865 0.8316177
000090 cc 53 1b 3f 08 f5 3f 3f 2f c0 25 3f fb a3 e4 3e
       0.6067474 0.74983263 0.64746374 0.44656357
0000a0 b4 5a 50 3f d8 d8 2d 3f 41 22 30 3f af 74 44 3f
       0.813884 0.67909 0.6880227 0.76740545
0000b0 b8 72 1c 3f f5 8d 51 3f 2c 65 31 3f 57 99 45 3f
       0.61112547 0.81857234 0.69295 0.77187103
0000c0 10 c0 25 3f f5 09 54 3f f4 fa 3c 3f fd 7e 57 3f
       0.6474619 0.82827693 0.73820424 0.84178144
0000d0 64 57 49 3f c1 ba 57 3f c9 d6 38 3f 4e ca 14 3f
       0.7864897 0.8426934 0.72202736 0.5812119
0000e0 d8 7c 45 3f 00 61 56 3f 51 d8 f1 3e e1 d9 2d 3f
       0.7714362 0.8374176 0.4723535 0.6791058
0000f0 47 5c 49 3f 71 e1 4c 3f ab 22 44 3f 93 25 42 3f
       0.7865643 0.80031496 0.766154 0.75838584
000100 38 88 80 3f e0 a4 3f 3f 5d f7 98 3f da 5b 63 3f
       1.0041571 0.74860954 1.1950489 0.8881203
000110 3f 07 72 3f 6d f9 90 3f e3 39 73 3f a7 d4 88 3f
       0.94542307 1.1326119 0.95010203 1.0689896
000120 c9 36 8f 3f b7 66 61 3f 9e 69 92 3f 82 a6 97 3f
       1.1188594 0.88047355 1.1438482 1.1847689
000130 b3 86 a3 3f 0b a5 71 3f e8 55 89 3f f3 cb 9f 3f
       1.2775482 0.9439246 1.0729342 1.2484115
000140 8d 3d 91 3f c6 10 89 3f bb ab 94 3f 2c 2f 9c 3f
       1.1346909 1.0708244 1.1614908 1.2201896
000150 66 1f 91 3f f8 76 96 3f 84 bc 91 3f 0b 48 8f 3f
       1.1337707 1.1755056 1.1385655 1.1193861
000160 b0 b2 aa 3f aa 76 a2 3f 46 87 98 3f 6e c1 9b 3f
       1.3335781 1.2692463 1.1916282 1.2168405
000170 e2 d5 a3 3f 98 5b a4 3f a3 42 9c 3f 03 6e b1 3f
       1.2799647 1.2840452 1.2207836 1.3861698
000180 c8 53 9d 3f b7 b3 9d 3f f6 5a a5 3f 28 d8 85 3f
       1.2291193 1.232047 1.2918384 1.0456591
000190 e7 90 aa 3f 5a 31 a8 3f 75 e6 91 3f 63 0d b5 3f
       1.3325471 1.3140061 1.1398455 1.414471
0001a0 3b 4b a3 3f 3d 45 9e 3f 26 da 9e 3f f0 a0 a2 3f
       1.2757334 1.236488 1.2410324 1.2705364
0001b0 10 00 a7 3f 3d 33 98 3f b2 d4 b8 3f 84 74 a8 3f
       1.3046894 1.1890637 1.443991 1.3160558
0001c0 9a 05 9f 3f f5 7a 9c 3f 5d c9 af 3f 5e 19 93 3f
       1.2423584 1.2225024 1.3733326 1.1492116
0001d0 ec da 95 3f 5f 90 90 3f e4 11 a5 3f 32 86 87 3f
       1.1707435 1.1294059 1.2896085 1.0587828
0001e0 82 f0 9b 3f 12 fd a1 3f fa 8e 91 3f 30 83 8a 3f
       1.2182772 1.2655356 1.1371758 1.0821285
0001f0 e6 2b 99 3f 00 f9 98 3f dc 0d 86 3f c5 bb 95 3f
       1.1966522 1.1950989 1.047298 1.1697928
000200 04 75 29 3f 3c 2c 3b 3f c6 49 45 3f 30 de 37 3f
       0.66194177 0.7311437 0.77065694 0.71823406
000210 6a 0a 3b 3f 9c d4 22 3f 4e 8b 29 3f 40 c6 22 3f
       0.73062766 0.63605666 0.6622819 0.63583755
000220 26 15 05 3f f9 7c 0d 3f d3 a0 18 3f b5 9f 3a 3f
       0.51985395 0.5526882 0.596204 0.72899944
000230 ab b3 0c 3f 23 39 3b 3f 38 1d 48 3f 24 08 26 3f
       0.5496165 0.7313406 0.78169584 0.6485617
000240 c4 9d 51 3f b0 de 0b 3f 5a 63 46 3f ef 1a 2c 3f
       0.81881356 0.5463667 0.7749535 0.672286
000250 aa 89 49 3f ac a1 43 3f 61 3e 4e 3f a7 1c 20 3f
       0.78725684 0.76418567 0.8056393 0.6254372
000260 5a 2a 3f 3f 25 b5 39 3f 34 11 33 3f 59 e9 33 3f
       0.74674 0.7254203 0.69948125 0.70277935
000270 4a 7f 36 3f 03 2e 0c 3f 82 4b 0a 3f 16 33 36 3f
       0.7128798 0.5475771 0.54021466 0.711717
000280 bf 7d 3c 3f dd 6b 67 3f 92 ff 2d 3f ec df 32 3f
       0.73629373 0.9039896 0.67968094 0.6987293
000290 e0 05 3f 3f 3f 17 4e 3f ac 29 31 3f b6 51 20 3f
       0.7461834 0.8050422 0.6920421 0.6262468
0002a0 94 fc 49 3f 36 b5 4a 3f 04 74 54 3f 1e d2 2c 3f
       0.7890103 0.79182756 0.82989526 0.67508113
0002b0 c1 bc 43 3f bb 5f 1d 3f 14 03 2c 3f e9 c6 28 3f
       0.7645989 0.614742 0.67192197 0.6592851
0002c0 b5 56 69 3f d1 f4 1f 3f 50 29 58 3f cf 5d 41 3f
       0.9114793 0.62482935 0.8443804 0.75533766
0002d0 92 95 33 3f 9d e7 4a 3f 0c a6 31 3f f4 f7 3a 3f
       0.701501 0.79259664 0.6939399 0.73034596
0002e0 fb b1 53 3f f0 77 5f 3f fa 4d 6c 3f 93 72 56 3f
       0.8269345 0.87292385 0.9230648 0.83768576
0002f0 07 3a 3f 3f 0c 57 4e 3f 40 12 40 3f 9c 8f 36 3f
       0.7469792 0.80601573 0.7502785 0.7131288
000300 0e 5e 6d 3f 04 5a 75 3f 83 99 44 3f 63 31 7e 3f
       0.9272164 0.9584048 0.7679674 0.9929411
000310 1c bb 53 3f 07 13 61 3f ca c4 5d 3f 96 42 59 3f
       0.8270738 0.8791966 0.866284 0.8486723
000320 a2 92 73 3f c3 9e 8a 3f 89 bc 6b 3f 58 21 69 3f
       0.9514562 1.08297 0.92084557 0.91066504
000330 d6 db 90 3f 55 09 89 3f df b6 9a 3f 32 88 8a 3f
       1.1317089 1.0705973 1.2087058 1.0822814
000340 56 b6 78 3f 93 6e 83 3f 89 77 86 3f c4 a5 91 3f
       0.9715322 1.026812 1.0505229 1.1378713
000350 c0 08 89 3f 34 34 a6 3f 4f 65 90 3f 24 c0 98 3f
       1.0705795 1.2984681 1.1280917 1.1933637
000360 5d 5d 86 3f 92 e4 86 3f 8b 90 ae 3f 1e c6 a4 3f
       1.0497242 1.0538504 1.3637861 1.287296
000370 9a 74 95 3f e4 b0 96 3f 8f c2 90 3f 8c f9 ab 3f
       1.1676209 1.1772733 1.1309375 1.3435531
000380 b7 20 96 3f eb ce 9f 3f 5e 52 a1 3f 8e 5f b0 3f
       1.1728734 1.2485021 1.2603261 1.3779161
000390 37 9d a2 3f ea 82 af 3f da 39 b0 3f f6 b9 8f 3f
       1.2704228 1.3711827 1.3767655 1.1228626
0003a0 3c 9a 94 3f 1d 18 93 3f 98 a9 9e 3f 6e c5 9a 3f
       1.1609569 1.1491734 1.2395506 1.2091501
0003b0 54 cb 90 3f d0 d8 ad 3f 5f 33 97 3f f8 33 a8 3f
       1.1312051 1.3581791 1.1812552 1.314086
0003c0 c8 c6 96 3f a3 88 9d 3f df 54 98 3f 56 f3 99 3f
       1.1779413 1.2307323 1.1900901 1.2027385
0003d0 8c e8 a2 3f 4e 7d 93 3f 22 2a 9a 3f 98 86 a6 3f
       1.2727218 1.1522615 1.2044108 1.3009825
0003e0 7a 57 a3 3f 5a 34 93 3f 29 77 98 3f 52 67 9b 3f
       1.2761071 1.1500351 1.1911365 1.2140906
0003f0 5d 1f 9a 3f 5b f5 98 3f b7 0e ac 3f 72 7a aa 3f
       1.2040821 1.1949877 1.3441991 1.3318617

blocks.0.norm2.bias f4 [256]
000000 89 65 d8 bc 00 4a cc 3c 1e 35 87 bc 70 02 e9 3c
       -0.026415603 0.02493763 -0.01650482 0.028443545
000010 a6 6c f5 3b 7a 26 2f 3d 9f 87 7b 3c b1 7d 57 bd
       0.0074897585 0.042761303 0.015352159 -0.052610103
000020 9e 45 11 bc 5a d9 15 b9 ee a8 df 3c 53 7d 77 3b
       -0.008866696 -0.00014290717 0.027302232 0.0037763908
000030 37 f9 a1 bc 92 8f 55 3c 10 89 97 bc c2 42 01 3b
       -0.019772155 0.013034718 -0.018497974 0.0019723629
000040 c5 7e 62 bc 91 f9 b7 bc ae 4d c5 bc 90 56 13 bc
       -0.0138241695 -0.02245787 -0.024084892 -0.008992806
000050 c8 d0 7b 3c f4 a0 09 3d 0a 50 6b bc 48 e7 7b bd
       0.015369602 0.033600762 -0.0143623445 -0.061499864
000060 e7 d3 1a 3c 88 62 ba 38 87 8a 39 3d 59 46 c1 bc
       0.0094499355 8.887524e-05 0.045298126 -0.023593115
000070 32 ce 47 bd 35 fa d7 bc 21 7a 3a bd e2 e4 bf 3c
       -0.048780628 -0.026364425 -0.045526627 0.02342457
000080 48 ed 28 3d a1 b1 bc bb 33 ed 80 bc 38 92 a5 bc
       0.041241914 -0.0057584797 -0.015738105 -0.020211324
000090 cf ff 9e 3d 4d a3 07 3c 7f 72 57 bc c0 08 42 3d
       0.07763635 0.00827868 -0.013149857 0.047371626
0000a0 95 bf de bc d0 4e 0e 3d e4 b3 ac 3c 77 d2 af bc
       -0.027190963 0.03474313 0.021081872 -0.021462662
0000b0 4c db 06 3d 76 6e 41 3d 2a 06 25 3d 34 a7 db bc
       0.03292398 0.047224484 0.04028908 -0.026813127
0000c0 36 3d bf 3c a1 9a 38 bc e0 f3 92 bd c2 31 98 bb
       0.023344617 -0.011267335 -0.07175422 -0.0046446035
0000d0 ae 39 26 bd a8 72 95 bd d3 0d 66 bb 44 14 8d 3c
       -0.04058235 -0.072972596 -0.0035103455 0.017221577
0000e0 31 9c 32 bd b3 7c f7 3c 48 9b 17 3d e2 d1 33 bc
       -0.043605987 0.030210828 0.037013322 -0.010975333
0000f0 ee 65 4c bd 5b e2 98 3c f8 9b f7 bc e8 66 35 bd
       -0.049901895 0.018662622 -0.030225739 -0.044287592
000100 f5 c2 6c 3d 56 48 92 3b 44 ad aa bd 5a 5c d7 bc
       0.057803113 0.0044641895 -0.08333829 -0.026289154
000110 2b 2a a7 3d 42 20 38 bd 17 07 2a 3d 45 7c 87 3d
       0.0816234 -0.04495264 0.041510668 0.066154994
000120 f0 28 8c bd a2 44 53 3c 79 1d 7b bc 11 ad be bd
       -0.06843746 0.012894781 -0.015326851 -0.093103535
000130 f4 29 dc 3b f7 33 5c 3d ef b2 87 bd b3 03 8e bd
       0.0067188684 0.053760495 -0.06625926 -0.06934299
000140 af 2b 1a 3e e5 d5 d3 3b 73 b8 33 bc 92 a6 37 3c
       0.15055726 0.006464707 -0.010969269 0.011209147
000150 55 e1 e3 bd 41 b8 bc bd 1c 39 13 bd b4 13 f8 bc
       -0.11126963 -0.09214831 -0.035943136 -0.030282833
000160 89 19 bb bb 09 3b f2 3d 00 cf d8 3c c7 43 9c bc
       -0.005709831 0.11827666 0.026465893 -0.019075288
000170 c0 30 4e bb 1e a9 96 3d 5e ad 93 bc 28 29 96 bd
       -0.0031462163 0.07356475 -0.018027004 -0.07332069
000180 80 ca ec 3c 01 de 06 be 3a 00 27 b9 a6 ed a1 bc
       0.028905153 -0.13170625 -0.00015926445 -0.01976664
000190 77 50 59 3d 30 6f 16 3d e5 3c 90 bc 92 bd 04 bc
       0.053055253 0.03672713 -0.017607162 -0.008101838
0001a0 85 87 76 bd 26 b7 14 3d db 1d d6 3d 52 d6 cd 3c
       -0.060187835 0.036307476 0.10454913 0.02512661
0001b0 c1 e0 c0 3d aa 6d 50 3d 07 e0 3a bd 4f e9 be 3d
       0.094178684 0.050885834 -0.045623805 0.09321844
0001c0 7f 7c 36 3d cc db 3b 3d ee fd 07 3d 12 78 84 3d
       0.044552322 0.04586391 0.03320115 0.06468214
0001d0 a6 fa e8 bd de a7 a0 bc 8c 50 d6 3d c7 c8 45 3d
       -0.113759324 -0.019611295 0.10464582 0.04828718
0001e0 b5 4b 18 3b d8 b6 92 3d b5 b3 8c bd cb 27 45 bc
       0.0023238484 0.07163781 -0.06870214 -0.012033413
0001f0 dc c7 ab 3d a0 0c c8 bc 3a 43 80 bd fa c0 6d bd
       0.083877295 -0.024420083 -0.062628224 -0.058045365
000200 61 20 1b 3c c2 35 44 bb 6b f7 99 3c 0f 6b a1 bc
       0.009468169 -0.0029939269 0.018794736 -0.01970437
000210 5d 76 af 3c e3 fe 6e 3c 31 8b 2c bd b8 53 3e bd
       0.021418745 0.014587137 -0.04212493 -0.04646656
000220 d5 3d 2f bc d6 db ad bc 59 48 ca ba c6 04 4a bd
       -0.010695894 -0.02122299 -0.0015432938 -0.04932096
000230 51 2e 66 3c 9c 0b d5 bb fd b5 1c 3d df 31 2c bc
       0.014049129 -0.006501628 0.038259495 -0.010509937
000240 40 be 42 ba 35 e3 96 3c 64 3e 29 bd f6 f4 31 bc
       -0.0007428862 0.018418888 -0.041319266 -0.010861626
000250 c6 d2 76 bd b8 d5 14 ba 58 6d c3 3c 83 68 6b 3c
       -0.060259603 -0.00056775985 0.02385585 0.014368179
000260 19 f9 0e 3c db df b7 3c 87 72 a8 3b 7a 33 fa bc
       0.008726382 0.02244561 0.005140606 -0.030542124
000270 3e be 9d 3c a2 be 39 3d e5 54 a8 bc d2 8e 61 bd
       0.019255754 0.045347817 -0.020548293 -0.055067845
000280 cc d5 71 b9 cd 0a 34 bd e7 51 f5 3c c5 b1 1d bb
       -0.00023063197 -0.043955613 0.02994628 -0.0024062258
000290 16 08 9f b9 7d c7 f4 3b a7 b1 21 3d 66 8c 69 3b
       -0.00030332868 0.00747007 0.039476063 0.0035636663
0002a0 67 08 88 bc 73 e0 ed bb 0a 7c 26 3c ff 13 f7 3b
       -0.016605569 -0.0072594224 0.010161409 0.0075402255
0002b0 d8 e9 2a bd 05 8a 32 3c fa 72 56 3c 33 a5 e4 bc
       -0.041726917 0.010897164 0.013088936 -0.027910804
0002c0 44 f3 24 3d 43 08 0f bc d7 07 3e bd 78 b3 68 bc
       0.04027106 -0.008729997 -0.046394195 -0.014202945
0002d0 a2 4d 88 3d ba 27 8d bc 21 fc de 3b a5 c4 7f bc
       0.06655432 -0.017230857 0.0068049585 -0.015610849
0002e0 42 8c 83 bd 7c fe b1 3c d2 c9 81 3c ae c6 83 3c
       -0.064232364 0.021727793 0.015843306 0.016085949
0002f0 3d 83 06 3c 90 ae 05 3d 58 95 db 3c 55 bf 52 bd
       0.008210001 0.03263718 0.026804611 -0.051452
000300 51 a8 54 3d b7 0d 14 bd b7 27 69 bc 77 3b 06 3d
       0.05191833 -0.036145892 -0.01423066 0.032771554
000310 fe 56 11 3c 0d bf c1 3a 7d f9 16 3d 6d c4 98 bd
       0.008870838 0.0014781669 0.036859024 -0.0745934
000320 12 a3 d5 bc 65 be 34 3c 78 f0 f4 3c c8 10 61 bd
       -0.026078735 0.011031722 0.02989982 -0.054947644
000330 d2 64 3b bd 9a 89 13 3b 85 ad 5c bd de db 5f bd
       -0.045750447 0.0022512437 -0.05387642 -0.05465304
000340 ed e3 30 3d 59 4e 37 bd 76 28 80 bd 15 be ce 3c
       0.043186117 -0.044752453 -0.06257717 0.025237123
000350 4d e3 c8 bc 34 b2 03 bd 73 2d 84 bd fe 48 37 3d
       -0.024522448 -0.03215237 -0.06453981 0.044747345
000360 32 4b 59 bd 29 27 37 3d 18 84 b6 bb e4 41 a4 bd
       -0.053050227 0.04471508 -0.005569946 -0.0802038
000370 0e 21 0e bc 7b e1 9a 3d 3b 67 90 3d 97 6f af 3b
       -0.008674873 0.07562538 0.0705094 0.0053538787
000380 2c 21 96 3d 16 e4 19 bc c1 2d 83 bc 14 42 0a bc
       0.07330546 -0.009392759 -0.016013028 -0.008438606
000390 19 b9 c8 3b 9f da 86 bd 0e a9 12 bd d9 08 49 bd
       0.006125581 -0.065846674 -0.035805754 -0.049080703
0003a0 fc fe 31 bd ec 74 e0 3d c7 70 b6 3d 99 d9 11 3d
       -0.043456063 0.10959801 0.08908229 0.035607908
0003b0 2a 66 37 3d fb 0e b7 bd ed e1 5b bd 49 da 0b bd
       0.044775166 -0.08938404 -0.053682256 -0.03414372
0003c0 2f 60 d3 3d 52 a4 ec 3c bf 41 52 3b 95 e1 5f 3d
       0.1032108 0.028886948 0.0032082645 0.05465849
0003d0 45 43 38 3d 41 db aa 3d 72 cd 2c bc ff f8 63 3c
       0.04498603 0.083426006 -0.010547029 0.013914346
0003e0 3d f0 fb bb 8c d9 81 3c fa de 0b bc 40 fa e7 bd
       -0.0076885507 0.015850805 -0.0085370485 -0.11327028
0003f0 79 ff 4b 3d b4 69 80 3d 04 07 ce 3b 29 2c 82 bd
       0.049804185 0.06270161 0.0062874574 -0.06356079

blocks.0.norm3.weight f4 [256]
000000 d5 91 86 3f 95 8f 3d 3f 89 a7 56 3f d8 b6 65 3f
       1.0513254 0.74047214 0.8384939 0.8973212
000010 36 85 37 3f 26 ea 2b 3f 34 c4 45 3f 50 5f 39 3f
       0.7168764 0.6715416 0.7725251 0.7241106
000020 5f 0e 2e 3f ea 93 15 3f d4 9b 39 3f df 08 4a 3f
       0.6799068 0.58428824 0.725034 0.78919786
000030 73 46 1f 3f 98 11 56 3f e9 f6 46 3f 4b dd 50 3f
       0.6221687 0.83620596 0.77720505 0.81587666
000040 29 10 40 3f fe 6a 05 3f ab c0 57 3f 1f 62 39 3f
       0.7502466 0.5211638 0.84278363 0.72415346
000050 53 13 36 3f 13 be 2c 3f 72 3e 3b 3f f5 a9 3e 3f
       0.71123236 0.6747753 0.7314216 0.74478084
000060 8b 3b 31 3f 80 08 3e 3f 58 22 5a 3f cf 00 42 3f
       0.6923148 0.7423172 0.85208654 0.75782484
000070 c2 ff 21 3f 89 5b 6f 3f ba a0 fc 3e 32 d7 2a 3f
       0.6328088 0.93499047 0.49341375 0.6673461
000080 2b 9e 42 3f 4f 6e 44 3f 1a da 65 3f a7 6b 58 3f
       0.76022595 0.7673082 0.8978592 0.84539264
000090 03 77 33 3f 14 e6 38 3f e6 be 3a 3f ea 16 0f 3f
       0.7010347 0.7222607 0.7294754 0.5589434
0000a0 f8 e3 42 3f 6e 2f 37 3f f9 b9 2d 3f 67 05 4a 3f
       0.761291 0.71556747 0.67861897 0.78914493
0000b0 a3 34 34 3f c1 24 55 3f b1 69 2d 3f 85 15 4c 3f
       0.7039282 0.83259207 0.677394 0.79720336
0000c0 a6 fe 18 3f 3b c4 51 3f bf 7d 31 3f b2 e1 4c 3f
       0.5976356 0.8194005 0.693325 0.80031884
0000d0 fb f5 4e 3f 5e e9 4a 3f 10 31 40 3f fa 34 28 3f
       0.80844086 0.7926234 0.75074863 0.65705836
0000e0 cb e4 4e 3f fb 71 50 3f b6 6d 2e 3f 5d 89 46 3f
       0.8081786 0.8142392 0.68136156 0.7755335
0000f0 28 fd 5f 3f d2 df 59 3f 50 d5 52 3f 47 86 41 3f
       0.8749566 0.8510715 0.8235674 0.75595516
000100 39 34 65 3f 86 d2 4e 3f 5d 2c 79 3f e0 4e 70 3f
       0.8953281 0.80789983 0.9733332 0.93870354
000110 9d ee 7f 3f 30 11 6e 3f 34 9d 7c 3f 09 a3 6a 3f
       0.9997347 0.92994976 0.9867737 0.9165502
000120 9f 4b 7d 3f 96 fa 75 3f ee 74 6b 3f 1c 90 7f 3f
       0.98943514 0.9608549 0.91975296 0.9982927
000130 e1 26 84 3f dd 6a 7e 3f db e0 7c 3f d4 c1 83 3f
       1.0324365 0.9938181 0.987806 1.0293527
000140 69 a6 84 3f ea 83 74 3f 7e 8d 7d 3f 57 f5 7e 3f
       1.0363284 0.95513785 0.99044025 0.9959311
000150 cb 17 7a 3f e4 9c 76 3f 57 17 7d 3f 04 8e 82 3f
       0.97692555 0.96333146 0.9886374 1.019959
000160 4a 11 72 3f 8b f2 69 3f d3 ea 79 3f 0c cc 83 3f
       0.9455763 0.91385716 0.9762394 1.0296645
000170 57 0d 76 3f e0 59 67 3f 43 f6 7d 3f cb d4 7a 3f
       0.96114105 0.90371513 0.9920389 0.97980946
000180 87 02 7e 3f 05 d7 7f 3f 81 ed 7b 3f 54 62 80 3f
       0.99222606 0.9993747 0.9840928 1.0030007
000190 1c 7b 74 3f 13 b1 7b 3f f8 15 74 3f 92 e9 77 3f
       0.9550035 0.9831707 0.9534602 0.96840775
0001a0 31 eb 7d 3f b5 2c 80 3f c2 8d 81 3f b5 7e 81 3f
       0.99187 1.0013644 1.0121386 1.0116793
0001b0 93 80 7f 3f fd 5f 81 3f 9b 99 6e 3f f8 02 7e 3f
       0.99805564 1.0107418 0.93203133 0.9922328
0001c0 38 3b 82 3f 3e df 7d 3f ed 0f 84 3f 53 97 81 3f
       1.0174322 0.99168766 1.031736 1.0124305
0001d0 5a 7f 83 3f 7d a4 7e 3f 6b d5 80 3f ce 94 7e 3f
       1.027324 0.9946974 1.006513 0.9944581
0001e0 73 e0 80 3f bc 6c 7a 3f c7 28 83 3f d3 a7 7e 3f
       1.0068496 0.97822165 1.0246819 0.9947483
0001f0 15 53 80 3f 90 24 7b 3f c9 a9 88 3f 93 62 82 3f
       1.0025355 0.98102665 1.0676814 1.0186332
000200 3e 0c 2e 3f 6d d2 49 3f 58 e1 53 3f 48 1c 44 3f
       0.6798743 0.7883671 0.8276572 0.76605654
000210 2e 03 42 3f 89 ab 2c 3f b5 f4 30 3f b3 9b 3a 3f
       0.757861 0.6744924 0.69123393 0.7289383
000220 a6 27 fe 3e 6b fb 1d 3f 95 c5 2b 3f 13 9d 3c 3f
       0.49639624 0.6171176 0.6709836 0.73677176
000230 4d 6d 07 3f 1f e8 4a 3f 3d e2 3f 3f 75 de 3d 3f
       0.52901155 0.7926044 0.7495459 0.7416757
000240 81 03 6e 3f 6a bd 1b 3f 6a 88 5a 3f 52 68 35 3f
       0.92974097 0.608359 0.853644 0.70862305
000250 a4 75 55 3f c6 ff 4b 3f c8 dd 57 3f 9f 0c 30 3f
       0.8338263 0.79687154 0.84322786 0.6876926
000260 15 15 45 3f 2c 0c 3a 3f 82 69 64 3f 65 1c 59 3f
       0.76985294 0.7267482 0.8922349 0.8480895
000270 11 51 42 3f 0a af 14 3f 9d cd 24 3f dd 0b 34 3f
       0.7590495 0.5807959 0.6437624 0.703306
000280 00 b1 43 3f ad 0e 5d 3f 57 a2 32 3f 37 2d 44 3f
       0.76441956 0.8635052 0.6977896 0.7663149
000290 b1 58 5d 3f 60 b8 55 3f ae 8f 4d 3f e0 01 2a 3f
       0.8646346 0.8348446 0.8029736 0.6640911
0002a0 2a d4 41 3f 36 ea 40 3f e8 03 66 3f 4f 74 1d 3f
       0.7571436 0.7535738 0.8984971 0.615056
0002b0 8a 6c 46 3f 6e 1d 2f 3f 25 82 32 3f ed 19 34 3f
       0.7750937 0.6840428 0.69729835 0.7035206
0002c0 1d ca 64 3f 5b 29 1e 3f bb 12 52 3f bb f4 38 3f
       0.893709 0.61781853 0.8205983 0.7224843
0002d0 20 40 36 3f f7 b6 53 3f ce fd 35 3f 1b 5b 35 3f
       0.71191597 0.8270106 0.710904 0.7084214
0002e0 fb 6f 53 3f 42 8c 55 3f 07 de 5b 3f 09 df 4e 3f
       0.82592744 0.8341714 0.8588566 0.80809075
0002f0 57 cc 58 3f 2a 8f 62 3f 32 44 5c 3f 03 b6 5e 3f
       0.846868 0.884997 0.8604156 0.8699648
000300 06 30 6d 3f 98 a1 80 3f e7 09 48 3f 9f cc 81 3f
       0.926514 1.0049314 0.7814011 1.014057
000310 09 48 60 3f a2 af 63 3f a5 bb 69 3f 25 ae 72 3f
       0.87609917 0.8893987 0.9130195 0.94796973
000320 90 c3 6b 3f 60 5b 77 3f 01 14 82 3f 3f d9 71 3f
       0.9209528 0.966238 1.0162355 0.94472116
000330 df 1c 74 3f 38 d4 7b 3f 83 22 7e 3f db 49 7a 3f
       0.95356554 0.98370695 0.9927141 0.97768945
000340 f2 8c 7e 3f e1 ee 7b 3f c6 b7 7d 3f 47 3e 7f 3f
       0.99433815 0.98411375 0.9910854 0.997044
000350 6b 14 85 3f 1d a9 7d 3f 73 50 89 3f 28 2a 88 3f
       1.0396856 0.9908617 1.0727676 1.0637865
000360 e2 33 79 3f 4f f5 82 3f 23 ab 75 3f f5 b7 7c 3f
       0.9734479 1.0231112 0.9596426 0.98718196
000370 4b 6d 7e 3f 62 39 79 3f e6 b5 7d 3f 4f 32 7d 3f
       0.9938552 0.97353184 0.9910568 0.9890489
000380 18 5a 81 3f fa b6 76 3f 27 c4 7c 3f 63 ea 80 3f
       1.010562 0.9637295 0.98736805 1.0071529
000390 c9 62 7d 3f ae 37 78 3f 74 3e 76 3f a5 fd 79 3f
       0.9897886 0.9695996 0.96189046 0.97652656
0003a0 f9 db 79 3f 21 21 7f 3f dd 14 7a 3f f9 09 81 3f
       0.97601277 0.99659926 0.97688085 1.0081168
0003b0 12 ac 84 3f 2d 77 76 3f 10 e3 82 3f 43 3e 81 3f
       1.0365012 0.962756 1.0225544 1.0097126
0003c0 46 37 7e 3f f0 11 77 3f 48 fd 7c 3f 1e ca 7e 3f
       0.9930309 0.96511745 0.98823977 0.99527156
0003d0 fd 7a 88 3f ed 6f 7a 3f 28 ea 83 3f 26 80 79 3f
       1.0662533 0.97827035 1.0305834 0.97461164
0003e0 ea a2 82 3f 01 a6 81 3f 13 c4 74 3f 1b 08 82 3f
       1.0205967 1.0128785 0.95611686 1.0158724
0003f0 cd a0 7c 3f 19 3e 80 3f 03 d5 7f 3f d9 18 80 3f
       0.9868286 1.0018951 0.99934405 1.0007583
